app/src/main/ml/soil_cnn.tflite (tflite, 410924 bytes, 12 tensors)

sequential/conv2d/BiasAdd/ReadVariableOp/resource f4 [128]
0	0xbc6efd89	-0.014586815
1	0x3d008fd0	0.03138715
2	0x3b41e6c9	0.0029587022
3	0x3da12e33	0.0787014
4	0x3d0e9d3a	0.03481791
5	0x3ad072b5	0.0015903326
6	0x3d644d0e	0.055737548
7	0xbca0c0de	-0.019623216
8	0xbaad3d48	-0.0013217116
9	0x3bec3b57	0.0072092223
10	0x39b37838	0.0003423111
11	0x3bdb740e	0.0066971844
12	0xbd09cbd8	-0.033641666
13	0x3c4936c4	0.012281124
14	0x3ca1f4ad	0.01976999
15	0xbc58830b	-0.013214837
16	0xbd0c6850	-0.034279168
17	0xba8bc725	-0.0010664208
18	0xbc5399d6	-0.012915095
19	0xbc82f8da	-0.015987802
20	0xbd357237	-0.044298377
21	0x3a90aafc	0.0011037285
22	0xbccc991b	-0.02497535
23	0x3a4bd377	0.0007775346
24	0x3c2fe5e2	0.010735961
25	0xbc7cd72f	-0.015432163
26	0xbc9b9588	-0.0189922
27	0x3c8e4b12	0.01736978
28	0x3c9a5260	0.018838108
29	0xbc2ffe61	-0.010741801
30	0xbd2a0e92	-0.0415178
31	0x3dab7a56	0.08372943
32	0x3d640aaf	0.05567425
33	0x38818d47	6.177514e-05
34	0xbba804c8	-0.005127523
35	0xba77811b	-0.00094415405
36	0xbb25af7f	-0.0025281606
37	0xbbf624e4	-0.007511722
38	0xbc3d322c	-0.011547606
39	0x3b9ff300	0.004881263
40	0x3c6f0626	0.014588868
41	0x3c04bcdc	0.008101668
42	0x3d15d5d4	0.036580876
43	0xbc526f13	-0.012843865
44	0xbaf269c1	-0.0018494652
45	0x3c68ef48	0.014217205
46	0x3d6c0fa7	0.057632115
47	0x3d861714	0.065473706
48	0x3c9c1ace	0.01905575
49	0x3ce8e076	0.028427344
50	0xbc9e98e2	-0.01936001
51	0xbb06f337	-0.0020591745
52	0xbb9d6132	-0.0048028463
53	0xbc001a7e	-0.007818816
54	0xbbdb6d6d	-0.006696394
55	0xbd007e31	-0.031370346
56	0x3b93d85a	0.004511875
57	0x3dade39e	0.0849068
58	0xbc03809e	-0.00802627
59	0x3c05b05e	0.008159725
60	0x3ac3f70a	0.0014950943
61	0xbc194ce5	-0.009356712
62	0xbbc3dd75	-0.0059773275
63	0xbbcda490	-0.006275721
64	0xbb1a3073	-0.0023527413
65	0xbc4569a2	-0.012049111
66	0xb9af84de	-0.00033477595
67	0xbc1ad9a1	-0.009451301
68	0x3d7ad7a2	0.0612408
69	0x3b28539c	0.00256846
70	0xbc030f62	-0.007999273
71	0x3b88ba99	0.004172635
72	0xbc573f6c	-0.01313768
73	0x3d5f4a7c	0.054514393
74	0xbc01079c	-0.007875349
75	0x3ade2323	0.0016947727
76	0xbcda7a1f	-0.02666956
77	0x3bb1f7fb	0.005431173
78	0x3c3763bc	0.011193212
79	0xbbd4b333	-0.006491089
80	0xbb2e5a4b	-0.0026604112
81	0xbb7c3368	-0.003848279
82	0xbc804304	-0.015656956
83	0xbd187de7	-0.037229445
84	0x38b52124	8.6369255e-05
85	0x3b402c52	0.0029323292
86	0xbd13fde3	-0.036130797
87	0x3be75439	0.0070596007
88	0xbd5e1575	-0.05421968
89	0x3d8788ca	0.06617887
90	0xbcf2a838	-0.029621229
91	0x3cd80c91	0.02637318
92	0xbcd31633	-0.025767421
93	0x3d98d2a8	0.074620545
94	0xbd28333a	-0.04106448
95	0xbcdf95cf	-0.027293114
96	0x3d348875	0.044075448
97	0xbd37c5d6	-0.044866405
98	0xb8761ce2	-5.867787e-05
99	0x3c1c449e	0.009537844
100	0xbc3d08a5	-0.011537706
101	0x3bbe8385	0.005814018
102	0xbbcb0bc3	-0.0061964705
103	0xbcb4928d	-0.022042537
104	0x3d856ff3	0.06515493
105	0x3b7b5ef3	0.0038356155
106	0xb84cec39	-4.885739e-05
107	0x3b35fdd1	0.0027769695
108	0x3dc236fe	0.09483145
109	0xbc5711ba	-0.013126785
110	0x3c413830	0.011793181
111	0x3db9b42a	0.09067567
112	0xbc0f7f42	-0.008758368
113	0xbd188439	-0.037235472
114	0xbc0c3d38	-0.008559518
115	0xbd4c98a3	-0.049950253
116	0x3db923fd	0.09040067
117	0x3c306600	0.010766506
118	0x3c216cca	0.0098525975
119	0xbd2f077c	-0.042731747
120	0x3cd3a48b	0.025835296
121	0x3d07cdb9	0.033155177
122	0x3abd338f	0.0014434921
123	0x3ac887c7	0.0015299254
124	0x3da962e8	0.08270818
125	0x3d4b57f5	0.04964443
126	0xbd3440aa	-0.04400698
127	0x3d4dc9c3	0.050241243

sequential/conv2d_1/BiasAdd/ReadVariableOp/resource f4 [64]
0	0xbbc7c5a4	-0.0060965586
1	0xbc0d9c08	-0.008643158
2	0x3bf2eab1	0.0074132313
3	0xbbd3dfcf	-0.006465889
4	0xbbe81209	-0.007082228
5	0xbbfc5a10	-0.007701166
6	0xbc4a1819	-0.012334847
7	0xbc16795e	-0.00918421
8	0x3d5ad7e5	0.05342855
9	0xbc6bae24	-0.01438478
10	0x3ca5b473	0.020227646
11	0x3c1635c6	0.009168094
12	0xbba03de6	-0.0048901914
13	0x3d704025	0.058654923
14	0xbc4646fa	-0.012101883
15	0xbb4dab8c	-0.0031382767
16	0x3c45e232	0.012077855
17	0xbc3249db	-0.010881866
18	0xbc018cf6	-0.007907143
19	0x3c021551	0.007939653
20	0x3ac9a768	0.0015384974
21	0xbbbe6466	-0.0058103083
22	0x3bc99a36	0.0061524166
23	0xbbbf2f45	-0.0058344924
24	0xbc2d2db1	-0.010569976
25	0x3b0215d7	0.0019849443
26	0x3ca1ff48	0.019775048
27	0x3afd3711	0.0019318779
28	0xbbb310a8	-0.005464632
29	0x3aec7fef	0.0018043498
30	0x3cd7f84e	0.026363518
31	0xbbbf62eb	-0.0058406494
32	0xbc0e4980	-0.008684516
33	0x3c0efa90	0.008726731
34	0xbbc22f64	-0.0059260596
35	0xbbfcf492	-0.0077195847
36	0xbbdf3cf2	-0.006812685
37	0x3c1a28dd	0.009409157
38	0xbbd12c7a	-0.006383476
39	0xbc8fa70d	-0.01753571
40	0x3c35ffd5	0.011108358
41	0xbbbc9b0a	-0.005755787
42	0x3bdad7e3	0.0066785677
43	0x3d9cf400	0.07663727
44	0xbc08284d	-0.00831039
45	0xbc111143	-0.008854213
46	0xbc3035d6	-0.010755023
47	0xbba55277	-0.005045231
48	0xbbdd835e	-0.006760045
49	0xbc13580b	-0.008993159
50	0x3d87b448	0.06626183
51	0xbcef6a9a	-0.029225636
52	0x3acc2ef2	0.0015577956
53	0x3c4cdcc6	0.012503808
54	0xbba99354	-0.0051750336
55	0xbbe4dd8a	-0.0069844173
56	0x3cafd23c	0.021462552
57	0x3c312f0a	0.010814438
58	0x3be0dd0f	0.0068622897
59	0xbbd7e244	-0.0065882523
60	0x3c813b7a	0.015775431
61	0x3da7ab3f	0.081869595
62	0xbbb0bf67	-0.0053939107
63	0xbc0024c1	-0.007821263

sequential/conv2d_2/BiasAdd/ReadVariableOp/resource f4 [32]
0	0xbc24c04f	-0.010055616
1	0xbc4eadb7	-0.012614659
2	0x3c7b4efd	0.0153386565
3	0xbc6179bb	-0.013761933
4	0x3c4e2e46	0.012584275
5	0xbcc3176f	-0.023814885
6	0x3d0b9bc3	0.034084093
7	0x3c67b445	0.014142101
8	0x3c4aed88	0.012385733
9	0xbc291267	-0.010319329
10	0x3c56a3af	0.013100549
11	0x3b89c695	0.004204581
12	0x3d6b55a4	0.05745472
13	0x3bcc3314	0.006231675
14	0xbc816214	-0.015793838
15	0xbc25206b	-0.01007853
16	0x3d3f7b69	0.046748552
17	0xbb3cf1f5	-0.002883074
18	0xbd244c57	-0.040111866
19	0x3acf00b2	0.0015793054
20	0x3d5f3548	0.054494172
21	0xbad625db	-0.0016338186
22	0xbcc08270	-0.023499697
23	0x3bc0ef0d	0.005887872
24	0x3dae2fbc	0.08505198
25	0x3cfbdcbc	0.030744903
26	0xbc2a885c	-0.010408487
27	0xbc8abefc	-0.016936772
28	0x3d2b3a91	0.0418039
29	0x3cd1cb35	0.025609592
30	0x3b35ebe0	0.0027759
31	0xbca2eccf	-0.01988831

sequential/dense/BiasAdd/ReadVariableOp/resource f4 [32]
0	0x3d7ac588	0.061223537
1	0x3dad7892	0.084702626
2	0x3d324293	0.04352052
3	0xbcb676f1	-0.022273513
4	0xbcce9900	-0.02521944
5	0x3ba4f027	0.005033511
6	0xbb5ff277	-0.003417162
7	0x3d7a05e6	0.06104078
8	0x3b8a780c	0.0042257365
9	0xbb151006	-0.0022745146
10	0x3ca2f5a3	0.01989252
11	0xbd253529	-0.0403339
12	0x3be801c7	0.00708029
13	0x3cfae2a4	0.030625649
14	0x3d4606ed	0.04834645
15	0x3d8ed440	0.06974077
16	0x3dd376b1	0.10325373
17	0x3caaa03b	0.020828357
18	0xbb940230	-0.0045168623
19	0xbcfbcbdc	-0.030736856
20	0x3d319c25	0.0433618
21	0x3d0f73aa	0.035022415
22	0xbbef0981	-0.007294834
23	0x3b97c341	0.0046314304
24	0x3d71d54d	0.05904131
25	0x3dc8a24a	0.09796579
26	0xbcf95a91	-0.030438693
27	0xbce2c3af	-0.0276812
28	0x3d4d0057	0.050049152
29	0x3d0a0e54	0.03370507
30	0xbc8edf91	-0.01744059
31	0x3d809a3c	0.06279418

sequential/dense_1/BiasAdd/ReadVariableOp/resource f4 [32]
0	0x3c3d163f	0.011540948
1	0xbc27f49a	-0.010251189
2	0xbce7e11b	-0.02830558
3	0x3d90dbcb	0.07073172
4	0x3da6485d	0.08119271
5	0xbc85b7c1	-0.016322972
6	0x3d2d812b	0.042359512
7	0x3ce24cf8	0.027624592
8	0xbce2d9d1	-0.027691754
9	0x3b4da52e	0.0031378972
10	0xbbe849cc	-0.0070888754
11	0xbb823d78	-0.003974613
12	0xbcad03f7	-0.021120055
13	0x3d917cfb	0.07103916
14	0xbc10a0a8	-0.008827366
15	0xbb5fcbc2	-0.0034148549
16	0x3d3b92d3	0.04579432
17	0xbd1d1556	-0.038350426
18	0xbcfb1bc3	-0.030652886
19	0x3d8132eb	0.0630854
20	0x3d300dbe	0.042981856
21	0x3c82a016	0.015945476
22	0x3d73f957	0.05956396
23	0x3d8d816d	0.06909452
24	0xbca4c085	-0.020111332
25	0x3daa36de	0.08311246
26	0xbb843f22	-0.0040358463
27	0xbd4545b5	-0.04816218
28	0x3a836bcd	0.0010026634
29	0xbc824887	-0.015903724
30	0xbd822952	-0.063555375
31	0x3c8ac625	0.016940186

sequential/dense_2/BiasAdd/ReadVariableOp/resource f4 [6]
0	0x3d5b81ff	0.05359077
1	0x3d864433	0.06555977
2	0xbd287c57	-0.041134205
3	0xbb8b2873	-0.0042467653
4	0xbda0b64a	-0.07847269
5	0xbd385407	-0.04500201

sequential/dense/Tensordot/MatMul f4 [32, 32]
0	0xbe3a0895	-0.18167336
1	0x3e1f6137	0.15564428
2	0xbd8656d9	-0.065595336
3	0xbe04915c	-0.12946075
4	0xbe981257	-0.29701492
5	0xbe02d2bf	-0.12775706
6	0xbdc2c8d2	-0.0951096
7	0xbda6cabc	-0.08144137
8	0x3dea8ebb	0.11453005
9	0x3e03f1a4	0.12885147
10	0xbccc38fc	-0.024929516
11	0xbe1c7a1b	-0.15280955
12	0xbdb21426	-0.08695249
13	0x3e3c9a5d	0.1841826
14	0xbc9f4438	-0.019441709
15	0xbe41fd16	-0.18944201
16	0x3db1a0c2	0.0867324
17	0xbe893ad7	-0.26802704
18	0xbe74d924	-0.23910958
19	0xbe57f36a	-0.21088949
20	0x3dfd6232	0.12372245
21	0x3e69f868	0.22848666
22	0xbdb975de	-0.090556845
23	0xbe53b1f8	-0.20673358
24	0x3e7cfd79	0.24706067
25	0x3ccb8005	0.024841318
26	0x3e3ad1e8	0.18244135
27	0x3d9bfc1f	0.07616448
28	0xba3fd276	-0.0007317433
29	0xbe5e805d	-0.21728654
30	0xbe2c1f18	-0.16808736
31	0x3e819abd	0.25313368
32	0x3e919b9e	0.2843904
33	0xbe912ad4	-0.28352988
34	0xbe2b33ec	-0.16719025
35	0xbeaa6383	-0.33279046
36	0x3db07816	0.086166546
37	0xbe882018	-0.26586986
38	0x3dbeb0c2	0.093110576
39	0xbde53cdb	-0.11193248
40	0x3e20a0f5	0.156864
41	0xbcedb0fc	-0.029015057
42	0x3e49af90	0.19695878
43	0x3df85104	0.121248275
44	0x3e995bf7	0.29952976
45	0xbe2bd3c8	-0.16780007
46	0xbe4be286	-0.1991063
47	0x3da21a97	0.07915228
48	0x3e9fc60b	0.31205782
49	0xbc954173	-0.018219685
50	0xbe9c764a	-0.30558997
51	0xbbfdd637	-0.0077464837
52	0x3e9a3a3c	0.30122554
53	0xbde7b637	-0.113140516
54	0xbe1f6373	-0.1556528
55	0x3e1fd177	0.15607248
56	0x3e8a5f8c	0.2702602
57	0xbe14ec55	-0.14543279
58	0x3d857567	0.06516533
59	0x3ea416e4	0.32048714
60	0x3d92bee8	0.07165319
61	0x3e7a84a8	0.24464667
62	0xbeb4e05a	-0.35327417
63	0x3e5d7700	0.21627426
64	0xbb0ab46f	-0.0021164676
65	0x3e40aa43	0.1881495
66	0x3e2a1f96	0.16613612
67	0xbcd09f3e	-0.025466558
68	0x3ddabedf	0.10680937
69	0xbe287806	-0.16452035
70	0x3dfc5ace	0.12322007
71	0xbe41089e	-0.18850943
72	0x3e6c8376	0.23097023
73	0xbddab438	-0.10678905
74	0x3c4296ab	0.011876742
75	0x3e7147b2	0.23562506
76	0x3d858f19	0.06521434
77	0xbda32859	-0.0796668
78	0x3e80eac0	0.251791
79	0x3e2a2b4e	0.16618082
80	0xbccd327e	-0.02504849
81	0xbe521a46	-0.20517835
82	0xbe1f4649	-0.15554155
83	0xbcde313b	-0.027123084
84	0x3e7ec51c	0.24879879
85	0xbe1da062	-0.15393212
86	0x3e6a381d	0.22872968
87	0xbe93fde9	-0.28904656
88	0xbe16caa3	-0.14725737
89	0xbe69787b	-0.22799866
90	0xbe0e3fd8	-0.13891542
91	0x3dd186cd	0.10230789
92	0xbde396c4	-0.11112741
93	0x3e8fa136	0.28052682
94	0xbe2d00c4	-0.16894823
95	0x3e6de03d	0.23230071
96	0x3d0d23c6	0.034457944
97	0xbc87783b	-0.016536823
98	0x3db23542	0.08701564
99	0x3e9df7bd	0.30853072
100	0x3e62a9a1	0.22135021
101	0xbd017ad7	-0.03161129
102	0x3e2cbc3a	0.16868678
103	0xbe491469	-0.19636692
104	0x3e8cff8b	0.27538714
105	0x3c01b449	0.0079165185
106	0xbe9db3df	-0.30801293
107	0x3e8204e7	0.25394365
108	0xbe307b98	-0.17234647
109	0x3e35cbef	0.17753576
110	0xbe5782eb	-0.21046035
111	0xbe77af02	-0.24187854
112	0xbd8c7155	-0.06857554
113	0xbcdbc452	-0.026827011
114	0x3e35c7c1	0.17751981
115	0x3de52167	0.111880116
116	0xbda9fb2f	-0.082998626
117	0xbe71dc18	-0.23619115
118	0xbda288f6	-0.079362795
119	0x3e681516	0.22664294
120	0x3e660c9d	0.22465749
121	0x3e0c98f7	0.13730226
122	0xbd7e9a89	-0.062159095
123	0x3cb7ee00	0.022452354
124	0xbdaf338e	-0.08554755
125	0x3e029c02	0.12754825
126	0x3e367482	0.17817882
127	0x3c96202a	0.018325884
128	0xbca3896f	-0.019962994
129	0xbe5d69c5	-0.21622379
130	0xbea317dc	-0.3185414
131	0xbe66a85f	-0.22525166
132	0xbe338523	-0.17531256
133	0x3e2abdfe	0.16674039
134	0xbe663aa1	-0.22483303
135	0x3e34439c	0.17603916
136	0x3e876248	0.2644217
137	0x3df85c1e	0.12126945
138	0x3e9120ff	0.28345487
139	0x3d48fc1b	0.04906855
140	0xbe25b740	-0.16183186
141	0x3e82a076	0.25513047
142	0x3e0c8900	0.13724136
143	0x3e200627	0.15627347
144	0x3e6bec7c	0.2303943
145	0x3d66d5fd	0.05635642
146	0xbc62a9b3	-0.013834405
147	0xbec78d63	-0.38975057
148	0xbe9ac6fd	-0.3022994
149	0xbe315f87	-0.17321597
150	0xbde81739	-0.11332554
151	0xbdcefefe	-0.1010723
152	0xbe97efc2	-0.29675108
153	0xbea8c076	-0.32959336
154	0xbd8a786c	-0.0676125
155	0x3dced678	0.100995004
156	0x3e509d05	0.20372398
157	0x3e621298	0.22077405
158	0xbdfb1df9	-0.12261576
159	0xbe1af713	-0.15133314
160	0xbe105a84	-0.14097029
161	0xbd154dbb	-0.036451083
162	0x3e938ee9	0.2881997
163	0x3e2d5aeb	0.16929214
164	0x3d9d7d00	0.076898575
165	0xbe116e46	-0.14202222
166	0x3e80d9a8	0.2516606
167	0xbc18567d	-0.009297964
168	0xbe19795e	-0.14987704
169	0xbd53c4e0	-0.051701427
170	0x3e8e3503	0.2777482
171	0x3e8f54ba	0.2799433
172	0xbdc465cf	-0.09589731
173	0x3dd84c03	0.10561373
174	0x3e8dd2e1	0.2769995
175	0x3d9b3a36	0.07579462
176	0xbdf9ceb6	-0.1219763
177	0x3e4ead6e	0.20183346
178	0xbdf6ca44	-0.12050298
179	0x3e301889	0.1719686
180	0x3daae4b8	0.08344406
181	0xbe1db861	-0.15402366
182	0x3e307898	0.17233503
183	0x3e72eab9	0.23722352
184	0xbda1e8e4	-0.079057485
185	0x3e3b84da	0.18312398
186	0x3e49f79f	0.19723366
187	0xbe1135a1	-0.14180614
188	0xbd3a2212	-0.04544265
189	0x3d9f42de	0.07776426
190	0x3e18e437	0.14930807
191	0x3e9a416f	0.30128047
192	0xbe355cd6	-0.17711195
193	0x3e84e87b	0.2595862
194	0xbdab9ae8	-0.083791554
195	0x3e3b29a2	0.182776
196	0xbdd8b783	-0.10581877
197	0xbe72120e	-0.236397
198	0xbe826bc4	-0.25472844
199	0xbdf5b7fd	-0.119979836
200	0xbdb8cfc2	-0.09024002
201	0x3e7ab225	0.24482019
202	0xbe8e1d7d	-0.27756873
203	0x3e0e9e98	0.13927686
204	0x3e366d98	0.17815244
205	0x3e85fe2d	0.26170483
206	0x3e4d76bf	0.2006483
207	0xbdad62a8	-0.08466083
208	0xbea05f56	-0.31322736
209	0x3d0cb975	0.034356553
210	0xbe91776c	-0.28411424
211	0x3e23002a	0.15918031
212	0x3e0142aa	0.12623087
213	0x3ca80256	0.020508926
214	0xbdfa618c	-0.12225637
215	0xbe7921a6	-0.24329242
216	0xbe4626c3	-0.19350724
217	0x3dac265f	0.08405756
218	0xbe215363	-0.15754466
219	0xbdc4651a	-0.09589596
220	0xbe12d482	-0.14338878
221	0xbe396240	-0.18103886
222	0x3e3419af	0.17587923
223	0x3e80fa1c	0.25190818
224	0xbe71419a	-0.23560181
225	0x3e85a719	0.26104048
226	0xbdc10b0d	-0.09425936
227	0x3d426463	0.047459017
228	0xbe8e44e9	-0.2778695
229	0xbcb37b36	-0.021909337
230	0x3df767e2	0.12080361
231	0x3e6c2800	0.23062134
232	0xbd5b494c	-0.0535367
233	0x3e12ecb8	0.14348114
234	0x3bb9205a	0.0056496086
235	0x3e4b21ce	0.19837114
236	0x3e26d20f	0.16291068
237	0x3e3cb527	0.18428479
238	0x3e7d6cb3	0.24748497
239	0xbe371a23	-0.17881064
240	0x3e8bca33	0.27302703
241	0x3ce9d6d1	0.028544815
242	0x3da05c91	0.07830156
243	0x3e7d4ad2	0.24735573
244	0xbe84bc9f	-0.25925156
245	0xbe3490f4	-0.1763342
246	0xbdf88fe6	-0.121368214
247	0xbe3d7c1b	-0.18504374
248	0x3d456c4b	0.04819898
249	0x3e92b948	0.28656983
250	0x3e3e45b7	0.18581282
251	0xbcd3a188	-0.02583386
252	0xbe212132	-0.1573532
253	0x3e7bf020	0.24603319
254	0x3dd69f29	0.10479576
255	0xbd7c49ee	-0.061593942

sequential/dense_1/MatMul f4 [32, 128]
0	0xbd550508	-0.05200675
1	0x3c8043c3	0.015657311
2	0x3e2325eb	0.15932433
3	0xbc765a6e	-0.015036209
4	0xbe0ed008	-0.13946545
5	0x3d8c8e25	0.068630494
6	0x3e3ac502	0.18239215
7	0xbe269b9f	-0.16270302
8	0xbc6d9e8b	-0.014503132
9	0x3c7d2848	0.015451498
10	0xbcd28726	-0.02569921
11	0x3de228f3	0.11042967
12	0xbd8efdb2	-0.06981982
13	0xbd34c580	-0.044133663
14	0x3d2387ed	0.03992455
15	0xbd1463f7	-0.036228146
16	0xbd246746	-0.04013755
17	0xbd71b92c	-0.059014484
18	0xbe10b7c0	-0.14132595
19	0xbdffb0af	-0.124848716
20	0xbcbf067a	-0.023318518
21	0x3e15521b	0.14582102
22	0x3cddd1b4	0.027077533
23	0x3cec274c	0.028827332
24	0xbd9db36f	-0.0770024
25	0x3d204fbc	0.03913854
26	0x3c07145a	0.008244598
27	0xbd8152f4	-0.0631465
28	0x3dd9bfd6	0.10632293
29	0x3dbe4ad7	0.09291618
30	0xbd839b43	-0.06426098
31	0xbe3bf725	-0.18355997
32	0x3cc14519	0.023592519
33	0x3e4543f5	0.19264205
34	0xbc896840	-0.016773343
35	0x3e067b6a	0.13133016
36	0x3e06b6af	0.13155626
37	0x3e1a3c4c	0.15062064
38	0xbda6c5b9	-0.08143181
39	0x3d6bb6c0	0.05754733
40	0xbe1c8ed5	-0.15288861
41	0xbe0539c1	-0.13010313
42	0x3dc55577	0.09635442
43	0xbe20ac03	-0.15690617
44	0xbc4698fe	-0.012121437
45	0x3d9d5cb9	0.07683701
46	0xbd7edf63	-0.062224757
47	0xba9461ee	-0.0011320689
48	0x3daa7345	0.08322767
49	0x3c8e2017	0.017349286
50	0xbe4f74f4	-0.20259458
51	0x3dc59b93	0.09648814
52	0xbc9daf4a	-0.019248623
53	0xbaf60af1	-0.0018771571
54	0xbe3f21e6	-0.18665275
55	0xbd3dbdcf	-0.046323594
56	0xbd047dcd	-0.032346535
57	0x3ba0f843	0.0049124076
58	0x3d050fdd	0.03248583
59	0x3e0a2f80	0.13494682
60	0xbe449be3	-0.19200091
61	0x3c44b604	0.0120062865
62	0x3e36432f	0.17799066
63	0x3e1ed688	0.15511525
64	0x3e00e5d3	0.12587671
65	0xbe1fcb9a	-0.15605012
66	0x3d210c17	0.03931817
67	0x3bb4e3b4	0.0055203084
68	0x3e3eb3b7	0.18623243
69	0xbdc740f8	-0.09729189
70	0xbdec99fa	-0.11552806
71	0xbdc7a0fb	-0.097475015
72	0xbd801614	-0.06254211
73	0x3dc85523	0.097818635
74	0xbe373253	-0.17890291
75	0x3c6b3e55	0.014358123
76	0x3e4a73b6	0.19770703
77	0x3ab884e9	0.0014077696
78	0x3dfb4bb5	0.12270299
79	0x3ce2f31d	0.027703816
80	0x3e23bff7	0.15991198
81	0x3ae51524	0.0017477614
82	0x3dfaa7fa	0.1223907
83	0x3d09941d	0.033588517
84	0x3e25a817	0.16177402
85	0x3e3651f7	0.17804705
86	0x3dd588a2	0.10426451
87	0x3e4e0866	0.20120391
88	0x3d268503	0.040654194
89	0xbe238294	-0.1596778
90	0x3da0f6ba	0.07859559
91	0xbccd2b24	-0.025044985
92	0x3e1170b4	0.14203149
93	0x3dbc2338	0.09186405
94	0xbcc3d1fe	-0.023903843
95	0x3d7d155c	0.061787948
96	0xbe04883a	-0.12942591
97	0xbd797d09	-0.06091026
98	0x3df333b1	0.11875094
99	0xbd6e8d1d	-0.058240045
100	0x3d8ca144	0.068666965
101	0xbe3a682c	-0.18203801
102	0xbe238379	-0.15968122
103	0xbe30ef42	-0.1727877
104	0xbc3e43a8	-0.01161281
105	0x3c46811d	0.012115744
106	0xbc35aa05	-0.011087899
107	0x3e15c1e5	0.14624746
108	0x3e4b9dda	0.19884434
109	0x3d8f7805	0.07005314
110	0x3e358da3	0.17729811
111	0x3d997958	0.074938476
112	0xbd27e667	-0.040991213
113	0xbdbd8ba6	-0.092551515
114	0x3e127d29	0.14305557
115	0x3e065e43	0.13121895
116	0x3d60fb47	0.054927137
117	0xbd665146	-0.056229852
118	0x3cd7fd43	0.026365882
119	0xbde2a7e6	-0.1106718
120	0x3e0b7f78	0.13622844
121	0xbe13588c	-0.14389247
122	0xbddd2d3e	-0.10799645
123	0xbde6d1ab	-0.1127046
124	0xbe46ca09	-0.19413008
125	0x3e02772f	0.12740777
126	0xbe04aed9	-0.12957324
127	0xbdfe0f02	-0.12405206
128	0x3e0aaac2	0.13541701
129	0x3e196f58	0.1498388
130	0x3c83dbec	0.016096078
131	0xbe4ad45f	-0.19807576
132	0xbd50e077	-0.050995316
133	0xbd1cd867	-0.038292315
134	0x3dc36bb0	0.09542024
135	0xbe5a19f4	-0.21298963
136	0x3bc9334c	0.0061401483
137	0xbe1acae6	-0.15116462
138	0x3d4f9356	0.05067762
139	0x3c450f31	0.012027548
140	0xbde04387	-0.1095038
141	0x3e2d27fd	0.16909786
142	0xbe1b891f	-0.15189026
143	0xbb08dd63	-0.002088391
144	0xbdf5ed83	-0.120081924
145	0x3dfacf09	0.1224652
146	0xbd8fb1d9	-0.070163436
147	0xbd964449	-0.07337243
148	0x3dd302e6	0.10303287
149	0xbe50950a	-0.20369354
150	0x3dfbee7c	0.12301347
151	0x3de0279a	0.109450534
152	0xbe1757fa	-0.14779654
153	0xbe12ceda	-0.1433672
154	0x3e0b2074	0.13586599
155	0x3d9a503a	0.07534833
156	0xbae24bfb	-0.0017265076
157	0xbe0326e7	-0.12807809
158	0x3e344dac	0.17607754
159	0x3df83b4c	0.12120685
160	0xbdd11004	-0.10208133
161	0xbe0a613e	-0.13513657
162	0x3dcd1733	0.100141905
163	0x3cd7fd14	0.026365794
164	0xbe23af26	-0.15984783
165	0x3d0a1cde	0.033718936
166	0x3c331390	0.010929957
167	0xbe231483	-0.15925793
168	0xbe306703	-0.17226796
169	0xbe032aea	-0.12809339
170	0xbe3ce9c9	-0.18448557
171	0xbe22faf1	-0.15916039
172	0xbe3ffb31	-0.18748166
173	0xbd55ac9c	-0.052166566
174	0xbc1a85d0	-0.009431317
175	0x3d9d6f0b	0.076871954
176	0xbdc79d67	-0.09746819
177	0xbc9a96a3	-0.018870657
178	0x3c8f1c24	0.017469473
179	0x3d5c7d46	0.053830408
180	0xbe09881b	-0.13430826
181	0xbe0a61f1	-0.13513924
182	0xbe529296	-0.2056373
183	0x3e23dd0a	0.16002288
184	0x3db32909	0.08748061
185	0x3d6ed5a5	0.058309216
186	0xbd159806	-0.036521934
187	0x3e2fa699	0.17153396
188	0x3a6b85e2	0.00089844887
189	0xbd61bd4f	-0.05511218
190	0x3bab004d	0.0052185417
191	0xbb244dab	-0.0025070708
192	0x3d9caa74	0.07649699
193	0x3d8ab71b	0.06773206
194	0xbb468624	-0.0030292356
195	0x3d8f27f0	0.06990039
196	0xbe087f99	-0.13329925
197	0x3bc39f7c	0.0059699398
198	0xbdb5ed6d	-0.08883176
199	0xbe0f8f04	-0.140194
200	0xbd36cc00	-0.044628143
201	0xbd8882e6	-0.06665592
202	0x3deb75d6	0.11497085
203	0xbe50242f	-0.20326303
204	0x3d7aeeb4	0.0612628
205	0xbde8eff7	-0.11373895
206	0xbe59fb6d	-0.21287318
207	0xbd80a6be	-0.062818035
208	0xbe1b650d	-0.15175267
209	0x3dcafd18	0.09911555
210	0xbe26c94f	-0.1628773
211	0x3e09f2c8	0.1347152
212	0xbdf5c05b	-0.119995795
213	0x3d9bf73a	0.07615514
214	0x3dd51382	0.104041114
215	0x3d9bbfd0	0.07604945
216	0x3d6a58dc	0.05721365
217	0x3d29ed3e	0.041486017
218	0xbd73b2b9	-0.059496615
219	0x3e24820e	0.16065237
220	0xbde13e1a	-0.10998173
221	0x3dfcca00	0.12343216
222	0xba453aff	-0.0007523745
223	0x3ce85a11	0.02836326
224	0xbe3ce524	-0.18446785
225	0x3dcc6554	0.09980264
226	0xbe21eea1	-0.15813686
227	0xbe1b4899	-0.15164413
228	0x3e066f5d	0.13128419
229	0xbe505979	-0.20346631
230	0xbd144a50	-0.036203682
231	0x3d18b7f9	0.037284825
232	0xbe3ab43f	-0.18232821
233	0x3e07f6aa	0.13277689
234	0xbe0f787d	-0.14010806
235	0x3d46a096	0.04849299
236	0x3cd53c9f	0.026029883
237	0x3d116fe8	0.035507113
238	0x3d665476	0.056232892
239	0xbddc807b	-0.10766693
240	0x3d48bb11	0.049006525
241	0x3dc85cb6	0.09783308
242	0xbe4edc7c	-0.20201296
243	0x3e14bc9a	0.14525071
244	0xbe30177a	-0.17196456
245	0x3dbb2d05	0.09139446
246	0xbda99574	-0.08280459
247	0x3d9b8349	0.075934
248	0xbca0cad0	-0.019627959
249	0xbdeccf63	-0.115629934
250	0x3c3e2653	0.011605817
251	0xbd0e3974	-0.03472276
252	0xbcc76f6b	-0.02434512
253	0xbdbd86db	-0.09254237
254	0xbe0b45ca	-0.13600841
255	0xbe3356a3	-0.17513518

sequential/dense_2/MatMul f4 [6, 32]
0	0x3c18569f	0.009297996
1	0xbe7238ee	-0.2365453
2	0xbe240578	-0.16017711
3	0xbeab9289	-0.33510235
4	0x3e699383	0.22810178
5	0x3ec19537	0.37809154
6	0xbe354ecc	-0.1770584
7	0x3ea3ffac	0.32031
8	0xbdaf10fa	-0.0854816
9	0xbd369527	-0.044575837
10	0x3e80243b	0.25027642
11	0x3e10d0a1	0.14142086
12	0xbe004383	-0.12525754
13	0xbebbe307	-0.36696646
14	0xbe914506	-0.28372973
15	0xbe3f3592	-0.18672779
16	0xbd36c146	-0.044617914
17	0x3d26d501	0.04073048
18	0xbe419262	-0.18903497
19	0x3e3085f0	0.17238593
20	0x3d4fc925	0.050728936
21	0xbe0b12dd	-0.13581415
22	0xbce4ffeb	-0.027954062
23	0x3ec1e5ea	0.37870723
24	0x3e4e0aea	0.20121351
25	0x3ebea742	0.37236983
26	0x3e3fcd53	0.18730669
27	0xbe37576d	-0.17904444
28	0x3e83b626	0.25724906
29	0xbe25a601	-0.16176607
30	0xbea2ad41	-0.31772807
31	0xbe8c5873	-0.2741123
32	0xbdee842d	-0.11646304
33	0xbe1ed06f	-0.15509199
34	0xbd8ca41d	-0.068672396
35	0x3edfe178	0.43726707
36	0x3ea5e85c	0.3240384
37	0xbe7204f0	-0.23634696
38	0x3e09446a	0.13405004
39	0xbec07d3e	-0.37595552
40	0xbd639507	-0.055562045
41	0xbe6321b5	-0.22180827
42	0x3cd814d1	0.026377114
43	0xbe169012	-0.14703396
44	0xbe81fbe0	-0.25387478
45	0x3ea4b9f5	0.32173124
46	0x3e5c6f7c	0.21526903
47	0x3e84da22	0.25947672
48	0x3e6e1e0e	0.23253652
49	0xbedd790d	-0.43256417
50	0xbd500602	-0.05078698
51	0x3e443b6b	0.19163291
52	0x3e3b4d0c	0.1829111
53	0xbdc673e3	-0.096900724
54	0x3e5a2210	0.21302056
55	0x3e485f54	0.19567615
56	0x3dd6c3fa	0.10486598
57	0x3e78067e	0.24221227
58	0xbe9c7fb7	-0.3056619
59	0xbe89da96	-0.2692458
60	0xbd2fbb17	-0.042903032
61	0xbe885d50	-0.26633692
62	0xbe8509d2	-0.25984055
63	0x3c422b37	0.0118511235
64	0x3e80250f	0.25028273
65	0xbda08fc0	-0.07839918
66	0xbea3d54d	-0.31998673
67	0xbe0de95c	-0.13858551
68	0x3ebd02d5	0.36916223
69	0x3ebbe433	0.3669754
70	0xbdf13f7c	-0.11779687
71	0xbecd00ed	-0.4003977
72	0x3de22b5a	0.11043425
73	0x3e82408d	0.25439873
74	0x3ed0d23f	0.40785405
75	0x3ea04e79	0.3130987
76	0x3ed00018	0.40625072
77	0xbe18be89	-0.14916433
78	0x3db821a5	0.08990792
79	0x3c6008a9	0.01367394
80	0xbde93f3e	-0.113890156
81	0x3e1b99e6	0.15195426
82	0xbe8df6d8	-0.2772739
83	0xbeb36217	-0.35035774
84	0x3dad3c47	0.084587626
85	0x3e3a8e6a	0.18218389
86	0x3d169b8b	0.03676943
87	0xbdb5e4f0	-0.08881557
88	0x3cab9ad4	0.020947851
89	0x3e17d4af	0.14827226
90	0x3e63c8e2	0.222446
91	0xbca3d910	-0.020000964
92	0x3eb5f4bf	0.3553829
93	0x3ec2c419	0.38040236
94	0xbd6af16a	-0.057359137
95	0xbeda84d8	-0.42679477
96	0xbe41a648	-0.18911088
97	0x3e82bd31	0.25534967
98	0xbe7b5978	-0.24545848
99	0x3dce0983	0.10060408
100	0xbe089c54	-0.13340884
101	0x3d819425	0.063270845
102	0x3dd1aefa	0.10238452
103	0xbe313870	-0.17306685
104	0x3c98fbb1	0.018674703
105	0xbe00a912	-0.12564495
106	0x3dcb1217	0.0991556
107	0xbd21d5e1	-0.03951061
108	0xbea26c35	-0.3172318
109	0xbe86ee1b	-0.26353535
110	0xbe8c0899	-0.2735031
111	0xbe8662c7	-0.26247236
112	0xbe998c5b	-0.29989895
113	0x3e684bcc	0.22685164
114	0x3e9a78c1	0.30170253
115	0x3ddbf3e1	0.107398756
116	0xbec93171	-0.39295533
117	0xbe83c2e7	-0.25734636
118	0x3e95cb48	0.29256654
119	0x3ea75451	0.32681516
120	0x3dc5025a	0.09619589
121	0xbea3301e	-0.31872648
122	0xbe77b9a1	-0.24191906
123	0x3ec3f90a	0.3827594
124	0xbe8e1420	-0.2774973
125	0x3d52c15e	0.05145394
126	0xbe2a24f0	-0.16615653
127	0xbeae554e	-0.34049457
128	0xbe880a62	-0.2657042
129	0xbed6516e	-0.41859
130	0xbec8cbca	-0.3921798
131	0x3d31d97d	0.043420304
132	0xbee957bf	-0.45574757
133	0x3e99bc4f	0.3002648
134	0xbe00cea0	-0.12578821
135	0x3e3ae737	0.18252264
136	0x3e9a7bc2	0.30172545
137	0x3d263e21	0.040586594
138	0x3dcba872	0.09944238
139	0xbd5db497	-0.054127302
140	0xbe73f56f	-0.23824094
141	0xbe597ec4	-0.21239763
142	0x3da608bb	0.08107134
143	0x3e0dd78f	0.1385176
144	0xbe846dfa	-0.25865155
145	0xbc13c62d	-0.009019417
146	0x3e25d7cd	0.16195603
147	0x3d924a8f	0.07143127
148	0xbe9f67fd	-0.31134024
149	0x3e4b5867	0.19857942
150	0x3ce298f8	0.027660832
151	0x3e8d8229	0.27638367
152	0x3ebffa41	0.37495616
153	0xbe13de6c	-0.14440316
154	0xbe5f4e2a	-0.21807161
155	0xbe4f532f	-0.20246576
156	0x3e89182d	0.26776257
157	0xbe464a64	-0.19364315
158	0x3e9028e2	0.2815619
159	0xbe2eccea	-0.17070356
160	0xba8ccdaf	-0.0010742451
161	0xbe63e587	-0.22255526
162	0x3e9db421	0.3080149
163	0xbea5dcc3	-0.3239499
164	0xbe446691	-0.19179751
165	0x3dadee53	0.08492722
166	0x3e1a2e39	0.15056695
167	0x3e9300f3	0.28711662
168	0xbdb9e9a9	-0.0907777
169	0xbec908c0	-0.39264488
170	0x3c6b4260	0.014359087
171	0x3ec0c79a	0.37652284
172	0xbe88b477	-0.26700184
173	0xbe81db61	-0.25362685
174	0x3ea1ac94	0.3157698
175	0x3ea70a60	0.32625103
176	0x3e1b764e	0.15181848
177	0xbe69fc90	-0.22850251
178	0x3e32d697	0.17464672
179	0x3e2d7bb8	0.16941726
180	0xbda577fd	-0.080795266
181	0xbeaf00a3	-0.34180173
182	0xbef85eb8	-0.48509765
183	0xbe4ac3bd	-0.1980123
184	0x3dcfa232	0.10138358
185	0xbe108f78	-0.14117229
186	0x3e3faa88	0.18717396
187	0x3d8b8f40	0.06814432
188	0x3ddc9ba1	0.10771871
189	0xbe6d083c	-0.23147672
190	0x3e5761b8	0.2103337
191	0x3ea522b0	0.32253027

sequential/conv2d/Conv2D f4 [128, 3, 3, 3]
0	0xbd51488f	-0.051094588
1	0xbd793a07	-0.060846355
2	0xbcbb3f6e	-0.022857394
3	0xbcf3c30f	-0.029756097
4	0xbc721d3a	-0.014777476
5	0x3d7dc8e3	0.06195916
6	0x3c787c09	0.015166291
7	0x3d72a2bc	0.059237227
8	0x3d5e858f	0.05432659
9	0xbd8cfbcf	-0.06883966
10	0xbcc32a2d	-0.023823822
11	0xbd2453cf	-0.04011899
12	0x3c0b1018	0.008487724
13	0xbd03f175	-0.032212693
14	0x3d3cc77e	0.046088688
15	0xbd565915	-0.05233105
16	0x3cced50c	0.025248073
17	0xbab3c3b5	-0.0013714941
18	0x3d5cf301	0.053942684
19	0x3cc6db0a	0.024274368
20	0x3d0fb8d8	0.03508839
21	0x3d5b9c76	0.05361601
22	0x3d2e05af	0.04248589
23	0x3c11de44	0.00890309
24	0xbd3913b7	-0.045184817
25	0xbd3a2708	-0.04544738
26	0xbd33d594	-0.043904856
27	0xbd8edcb1	-0.06975687
28	0xbc1f417e	-0.009720204
29	0x3cd6669c	0.026171975
30	0x3ce1260d	0.027483964
31	0xbd909bef	-0.07060992
32	0xbd87bb01	-0.06627465
33	0xbccadcc8	-0.02476348
34	0x3bb74973	0.0055934726
35	0xbd6ff2a6	-0.058581017
36	0x3cc79e49	0.024367468
37	0x3b915fe6	0.004436481
38	0xbd212dbb	-0.039350253
39	0x3c8830ba	0.016624797
40	0x3c802def	0.015646903
41	0x3cb0129e	0.021493252
42	0xbd939ed2	-0.07208027
43	0xbd80ce00	-0.062892914
44	0xbc37913f	-0.011204063
45	0xbcc49a2f	-0.023999302
46	0x3d6ed39e	0.058307283
47	0x3d5dace6	0.054119967
48	0xbc0e22da	-0.008675301
49	0x3d81e556	0.063425705
50	0x3d0a4ceb	0.03376476
51	0x3d3316c3	0.04372288
52	0xbd3a865a	-0.045538284
53	0x3ce4a9da	0.027913023
54	0x3d219481	0.039448265
55	0x3cca9a7a	0.024731863
56	0x3c07c51f	0.008286743
57	0xbd47c334	-0.048770145
58	0x3c8e04a5	0.017336199
59	0x3d8ce9fb	0.06880566
60	0xbd865395	-0.06558911
61	0x3d955b60	0.07292819
62	0x3d34c688	0.044134647
63	0xbd8a321c	-0.06747839
64	0xbd38d67c	-0.045126423
65	0xbd4c1efe	-0.049834244
66	0x3cc02828	0.023456648
67	0x3cfc55a2	0.030802552
68	0xbcb74c49	-0.022375243
69	0xbd0a994a	-0.033837594
70	0x3c4a8342	0.012360396
71	0x3d413425	0.04716887
72	0xbd370185	-0.044679184
73	0x3cecd55c	0.028910331
74	0x3d1f5f8d	0.038909484
75	0x3d9037d5	0.07041899
76	0x3dae3679	0.085064836
77	0x3bba8709	0.005692367
78	0xbd1bb4e5	-0.03801431
79	0x3d8a4bc0	0.067527294
80	0xbcefaa59	-0.029256033
81	0xbd7fe9ad	-0.06247871
82	0xbcec3626	-0.028834414
83	0x3cefe4f7	0.029283984
84	0xbda4bae8	-0.08043462
85	0xbb5db9a4	-0.0033832574
86	0x3d1144dc	0.03546606
87	0xbd10cbc9	-0.035350595
88	0xbd21103e	-0.03932213
89	0xbca52568	-0.020159438
90	0xbc9dfceb	-0.01928564
91	0xbd962e87	-0.07333093
92	0xbbe2e131	-0.0069238176
93	0xb9d75534	-0.00041071477
94	0xbd96f84e	-0.07371579
95	0xbd876a9a	-0.066121295
96	0xbd927e66	-0.07153015
97	0x3c0f5513	0.008748311
98	0x3c5370d1	0.0129053155
99	0x3d581037	0.05274984
100	0x3d2f1772	0.04274697
101	0x3d5d79a2	0.054071076
102	0x3d96b391	0.07358468
103	0xbd397074	-0.04527326
104	0x3d625bd7	0.055263367
105	0x3d78f236	0.060777865
106	0xbcaf329c	-0.021386437
107	0x3bc03287	0.0058653983
108	0xbc70ed99	-0.014705085
109	0x3c9646ba	0.018344272
110	0x3d84200d	0.06451426
111	0x3d73967f	0.059469696
112	0xbd5fe245	-0.054659147
113	0xbcad6ee7	-0.021171046
114	0xbd8d7f05	-0.06908993
115	0x3d88e069	0.06683428
116	0xbd38d74e	-0.045127206
117	0x3d14e78f	0.036353644
118	0x3d697b39	0.05700228
119	0xbc70be13	-0.014693755
120	0xbd860db7	-0.06545585
121	0xbd88f8aa	-0.06688054
122	0xbd6e8ca2	-0.058239587
123	0xba73b16b	-0.00092961517
124	0xbd63e3db	-0.05563722
125	0x3c66e09e	0.014091639
126	0x3d79f450	0.06102401
127	0x3d9c7c7b	0.0764093
128	0x3db0269e	0.08601116
129	0x3c48a543	0.012246433
130	0xbd5c75df	-0.053823348
131	0xbd1dbadd	-0.038508285
132	0xbd8005c8	-0.06251103
133	0xbd4b18c4	-0.049584165
134	0xbd8bec92	-0.068322316
135	0x3d4bfef9	0.049803708
136	0xbca6c997	-0.020359797
137	0x3d93efab	0.072234474
138	0xbd3fae1f	-0.046796914
139	0xbd8be514	-0.068308026
140	0xbd623bca	-0.0552328
141	0xbd4c782d	-0.049919296
142	0xbd5aab01	-0.05338574
143	0xbd834e87	-0.06411462
144	0x3d99fbb7	0.07518714
145	0x3ba71b31	0.005099677
146	0x3d475284	0.048662677
147	0xbd209b1c	-0.039210424
148	0x3d34c8ab	0.044136684
149	0xbc865901	-0.016399862
150	0x3d2596f7	0.040427174
151	0x3ca9aa8c	0.020711206
152	0xbdb29bb0	-0.08721101
153	0x3d5ed300	0.054400444
154	0x3da0120b	0.078159414
155	0x3ddacdf2	0.10683812
156	0x3c3211df	0.010868519
157	0xbc6d4d12	-0.014483707
158	0x3d5b1087	0.05348256
159	0xbdc22547	-0.09479766
160	0xbdb2564e	-0.087078676
161	0xbdb74338	-0.08948368
162	0xbd80a2d3	-0.06281056
163	0x3d318444	0.04333903
164	0xbd8c91f9	-0.068637796
165	0xbd0d889b	-0.034554105
166	0xbb912a0e	-0.004430062
167	0x3d667ed1	0.056273285
168	0x3cd248a1	0.025669398
169	0x3d2787a2	0.040900834
170	0xbd08d5eb	-0.033407133
171	0xbd503cfc	-0.05083941
172	0xbc849ca6	-0.016187977
173	0xbd87553f	-0.06608056
174	0xbd493c96	-0.049130045
175	0x3cbeccbc	0.023290984
176	0xbdadaca0	-0.08480191
177	0xbc4d27f2	-0.012521731
178	0xbcaec092	-0.021332059
179	0x3cd86e83	0.026419884
180	0x3d9c7f79	0.07641501
181	0x3ce7303d	0.028221244
182	0xbc916a10	-0.01775077
183	0xbd327c7c	-0.04357575
184	0xbd34a301	-0.044100765
185	0xbd4c64a2	-0.04990066
186	0x3da9acbc	0.082848996
187	0x3da0874f	0.07838308
188	0x3cdfb3fc	0.027307503
189	0xbda16433	-0.078804396
190	0xbd0c8bdf	-0.03431308
191	0x3d2786d4	0.040900066
192	0xbc85cf2e	-0.016334143
193	0xbd817cee	-0.063226566
194	0xbcd3b076	-0.02584098
195	0xbd2df669	-0.042471323
196	0xbce74f5f	-0.02823609
197	0xbd621308	-0.05519393
198	0x3d20ab05	0.039225597
199	0xbda0ae7e	-0.07845782
200	0xbd76328e	-0.060106806
201	0xbd23c549	-0.039983068
202	0xbc58c94e	-0.0132315885
203	0xbd526967	-0.05137005
204	0x3d3427d0	0.04398328
205	0xbc5db51b	-0.013531948
206	0x3cb5be73	0.02218554
207	0x3c83ce58	0.016089603
208	0x3d307019	0.043075655
209	0x3c92e223	0.017930096
210	0xbce6b803	-0.028163916
211	0xbc353614	-0.0110602565
212	0x3d5ea475	0.054356057
213	0xbcaba2cf	-0.020951657
214	0xbd647adc	-0.05578123
215	0x3cad047f	0.021120308
216	0xba746f5e	-0.00093244563
217	0x3d03addb	0.032148223
218	0xbd77e0da	-0.06051717
219	0x3d877630	0.06614339
220	0xbcd9dcfa	-0.026594628
221	0x3b91fb0b	0.0044549755
222	0x3d8614d8	0.065469444
223	0xbb548dde	-0.0032433192
224	0xbd8c321f	-0.06845497
225	0xbc58cab9	-0.013231927
226	0xbc82ca70	-0.01596567
227	0xbc6dd31d	-0.014515665
228	0xbd12ac02	-0.03580857
229	0x3d1e6b4b	0.03867654
230	0xbd252e3e	-0.040327303
231	0x3d5f4700	0.05451107
232	0xbd71d779	-0.05904338
233	0x3d5a192a	0.053246655
234	0x3d301d30	0.042996585
235	0xbd287a2f	-0.04113215
236	0x3c81081d	0.015750939
237	0xbb32500f	-0.0027208363
238	0xbd5465a6	-0.051854752
239	0xbcf0e615	-0.029406587
240	0x3d993097	0.07479971
241	0xbd2b329e	-0.04179632
242	0x3cd61c91	0.026136668
243	0x3d66108a	0.056168117
244	0x3c18e16f	0.009331091
245	0x3d597502	0.053090103
246	0x3d006ebe	0.031355612
247	0xbcf19524	-0.029490061
248	0xbd0ca5fb	-0.03433798
249	0xbcc71b30	-0.024304956
250	0xbb384cf1	-0.0028122033
251	0x3d9eec19	0.07759876
252	0xbd0f664d	-0.03500967
253	0xbcf58904	-0.02997256
254	0x3cf94fa6	0.030433487
255	0xbd815822	-0.06315638

sequential/conv2d_1/Conv2D f4 [64, 3, 3, 128]
0	0xbd18654a	-0.03720597
1	0x3c11b4d3	0.0088932095
2	0x3d4b4737	0.049628463
3	0x3d4a6dec	0.049421236
4	0x3cf489ee	0.029850926
5	0xbd1f1466	-0.038837813
6	0xbcdded7e	-0.027090784
7	0xbc7c71bb	-0.015407975
8	0x3cd3d4be	0.02585828
9	0x3cc2b168	0.023766235
10	0xbd874385	-0.06604675
11	0x3d2a7eef	0.04162496
12	0x3d356ac9	0.04429129
13	0xbd53eafe	-0.051737778
14	0xbb7e0dda	-0.003876558
15	0x3c2cf989	0.010557541
16	0x3bda080e	0.006653792
17	0x3d494050	0.0491336
18	0xbc45fa3a	-0.012083584
19	0x3cc68b1c	0.024236254
20	0x3d48b016	0.048996054
21	0xbd169f09	-0.03677276
22	0x3a8e9985	0.0010879493
23	0x3d73451e	0.059392087
24	0x3d0ad86c	0.033897802
25	0x3cabac4a	0.020956177
26	0x3d25294b	0.040322583
27	0x3ceba510	0.028765231
28	0x3ce06550	0.02739206
29	0x3c8bb0cd	0.017052079
30	0x3ce798ad	0.028271044
31	0xbd41a3dd	-0.047275413
32	0x3cb3608a	0.02189662
33	0xbcea9b45	-0.028638491
34	0x3cad12f6	0.021127205
35	0xbc4d10d1	-0.012516216
36	0x3cf75a31	0.030194374
37	0x3c93d785	0.018047104
38	0xba72f500	-0.0009268075
39	0x3bc8cacf	0.0061276923
40	0xbcc53c09	-0.024076479
41	0xbcf225ac	-0.029558979
42	0x3d0878d0	0.03331834
43	0xbceeb077	-0.02913688
44	0xbcce663d	-0.025195235
45	0xbd43672a	-0.047705807
46	0xbc615297	-0.013752601
47	0x3d1598c7	0.036522653
48	0xbc2aad5d	-0.01041731
49	0xbcc19817	-0.023632092
50	0xbd16f921	-0.03685868
51	0xbcb2e61a	-0.021838237
52	0xbb79567d	-0.0038045936
53	0x3ca80b75	0.020513276
54	0xbd763dbd	-0.060117472
55	0xbb65b144	-0.0035048285
56	0xbcdc4d19	-0.026892232
57	0x3d14689d	0.03623258
58	0xbd324eea	-0.04353229
59	0x3ab7dcc4	0.0014027585
60	0xbd2b57cd	-0.04183178
61	0x3c65301b	0.01398852
62	0xbb921a3d	-0.0044586943
63	0xbd53e783	-0.05173446
64	0x3b863a54	0.0040963087
65	0x3bd84251	0.0065997024
66	0xbbdbc1b5	-0.0067064413
67	0x3d137ea3	0.036009442
68	0x3cffcbb6	0.031225067
69	0x3d360d17	0.044446077
70	0x3cc715b1	0.024302335
71	0x3c54cf75	0.012988915
72	0xbd173b6a	-0.036921896
73	0x3cd7cf95	0.0263441
74	0xbc8b7d9b	-0.017027667
75	0x3d2e3f3b	0.04254077
76	0xbd2693dd	-0.040668357
77	0x3d28fe89	0.04125837
78	0xbd758636	-0.059942447
79	0x3d5b274b	0.05350427
80	0xbd04f9a4	-0.03246464
81	0xbcb2262c	-0.021746717
82	0x3d596023	0.0530702
83	0x3d276079	0.040863488
84	0x3c916343	0.017747527
85	0xbd17094c	-0.0368741
86	0xbca29866	-0.01984806
87	0x3ce0ba8d	0.027432704
88	0x3cd40ba8	0.025884464
89	0xbd165634	-0.036703303
90	0x3cd999ae	0.026562538
91	0xbc2414a4	-0.010014687
92	0x3d0bb71c	0.034110174
93	0xbd2fed75	-0.042951066
94	0x3cb34dc3	0.021887666
95	0xbc865f44	-0.016402848
96	0xbce73647	-0.028224124
97	0x3cfcf25d	0.030877287
98	0xbd48c162	-0.04901255
99	0xbcd96ddc	-0.026541643
100	0x3cd00ba4	0.025396176
101	0x3d078c3e	0.03309273
102	0xbd2c461a	-0.04205904
103	0xbce51bdd	-0.027967388
104	0x3c57afa9	0.013164439
105	0xbd3ce510	-0.04611689
106	0x3c240a91	0.010012285
107	0x3d2f84ed	0.042851377
108	0xbc9ad72a	-0.018901426
109	0x3ccebcdb	0.025236538
110	0x3b867407	0.004103187
111	0xbd531112	-0.05152995
112	0xbc0edc9a	-0.008719588
113	0x3ca25dbd	0.019820089
114	0xbd6402ff	-0.05566692
115	0xbd031c87	-0.032009628
116	0x3cee15d7	0.029063148
117	0xbbf2f81d	-0.0074148313
118	0xbd20f44c	-0.03929548
119	0xbc33a22c	-0.010963958
120	0x3d11b887	0.03557637
121	0xbd64861a	-0.05579195
122	0xbc8cd518	-0.017191455
123	0x3d2a6396	0.04159888
124	0xbc260776	-0.010133615
125	0xbc500a53	-0.012697774
126	0x3d362588	0.044469386
127	0x3d5ba198	0.053620905
128	0x3c91fa0c	0.017819427
129	0xbd04a1e3	-0.03238095
130	0x3d55a930	0.052163303
131	0xbcb4f607	-0.022089971
132	0xbcf16cb0	-0.029470772
133	0x3cf9c100	0.030487537
134	0xbd6e9233	-0.058244895
135	0xbd4e8424	-0.050418988
136	0x3c56c92e	0.013109488
137	0x3d574dc2	0.05256439
138	0xbd80c8b5	-0.06288282
139	0x3c8ead34	0.017416574
140	0xbd6a9624	-0.05727209
141	0x3d2feaf8	0.042948693
142	0xbbd98538	-0.0066381954
143	0xbd389a1c	-0.045068845
144	0x3ccde7fc	0.025135033
145	0xbc85e6df	-0.01634544
146	0x3d274560	0.040837646
147	0xbd6a32fe	-0.057177536
148	0xbcd7996a	-0.02631827
149	0x3d269e64	0.040678397
150	0xbbbc6d8f	-0.005750365
151	0xbd7333b2	-0.059375472
152	0x3cd6ac8f	0.02620533
153	0xbce3fd12	-0.027830634
154	0x3d1eb3de	0.038745753
155	0x3cdb449e	0.026766118
156	0x3c83e979	0.01610254
157	0x3c1cbe2d	0.009566826
158	0xbcc8cab7	-0.024510724
159	0xbce394bf	-0.027780889
160	0x3b9bceeb	0.004754891
161	0x3ca7de2d	0.020491684
162	0xbd3ce0df	-0.04611289
163	0xbd77f480	-0.060535908
164	0xbd198709	-0.037482295
165	0xbd269d23	-0.0406772
166	0x3d49e255	0.049288113
167	0xbcc53c7e	-0.024076696
168	0xbd15d9d8	-0.036584705
169	0xbd0b79ed	-0.034051824
170	0xbd13ad39	-0.03605387
171	0xbd0b4978	-0.034005612
172	0xbd30000c	-0.042968795
173	0xbba98285	-0.00517303
174	0xbd7ea259	-0.062166546
175	0x3d114ce4	0.03547372
176	0xbb79e061	-0.0038128125
177	0xbc6d940e	-0.014500631
178	0xbd691508	-0.056904823
179	0x3cef79dd	0.029232914
180	0xbcb8eaf3	-0.02257297
181	0x3d0238f9	0.031792615
182	0x3a5f254d	0.0008512333
183	0xbcabc21e	-0.020966586
184	0x3d0ef4fc	0.034901604
185	0x3d3a5e4d	0.04550009
186	0xbd64c1b9	-0.05584881
187	0xbb65e81d	-0.0035080977
188	0x3c8c0f7a	0.017097224
189	0xbb23b452	-0.0024979305
190	0x3bfc02cd	0.0076907636
191	0x3d0ddf62	0.034636863
192	0xbca41d4a	-0.020033497
193	0xbd34603d	-0.044037092
194	0x3d3359f4	0.043786958
195	0x3c7a2321	0.015267164
196	0x3d0afc02	0.03393174
197	0xbd75347f	-0.059864517
198	0x3ce18398	0.02752857
199	0xbc9e6371	-0.019334527
200	0x3ce5c579	0.028048264
201	0x3b98ca37	0.0046627778
202	0xbced6631	-0.028979393
203	0xbc17f6f9	-0.009275191
204	0x3d08d101	0.033402447
205	0xbd7487ef	-0.05969995
206	0xbcae9c43	-0.021314746
207	0xbd2f9b98	-0.042872995
208	0x3d39a83c	0.045326456
209	0xbd069bcf	-0.032863434
210	0xbcfa6a09	-0.03056814
211	0xbcf62d13	-0.03005079
212	0xbd6c69ba	-0.057718016
213	0x3d51e2d8	0.051241726
214	0xbd2eb84c	-0.042656228
215	0x3bc46829	0.005993862
216	0xbd73e8fc	-0.059548363
217	0x3ae54d81	0.0017494411
218	0x3d2babb4	0.041911796
219	0x3c9da896	0.019245427
220	0xbcae5923	-0.021282738
221	0x3d00ce20	0.031446576
222	0xbd21a625	-0.03946509
223	0xbb9b0287	-0.004730526
224	0xbcd1fd00	-0.025633335
225	0xbc6d2639	-0.014474445
226	0xbd601c5e	-0.054714553
227	0x3ccaff5c	0.024779968
228	0xbd68a20f	-0.056795176
229	0xbd7dc557	-0.061955776
230	0xbd22b2e1	-0.039721373
231	0x3d4360e3	0.04769982
232	0xbd755783	-0.05989791
233	0x3cae7e7f	0.021300552
234	0xbc79e67e	-0.0152527075
235	0xbcdbdb5f	-0.026838003
236	0x3c705dce	0.014670802
237	0xbcfdb9e3	-0.030972427
238	0x3c6ba8a6	0.014383471
239	0xbcf245d1	-0.029574307
240	0xbd83d957	-0.06437939
241	0x3cd952ab	0.026528677
242	0xbd57775e	-0.05260407
243	0x3cda7b66	0.02667017
244	0xbd8363a7	-0.064154916
245	0xbcc1dcaf	-0.0236648
246	0xbd68be3e	-0.056822054
247	0xbd2b6d55	-0.041852314
248	0x3c9ec885	0.019382725
249	0xbd15c05a	-0.036560394
250	0x3d148c66	0.036266707
251	0xbcce02f6	-0.025147896
252	0xbaf77d76	-0.0018881995
253	0x3c21ba6a	0.009871105
254	0x3d1438e2	0.03618706
255	0x3ce030c1	0.027366998

sequential/conv2d_2/Conv2D f4 [32, 3, 3, 64]
0	0x3d15932e	0.036517315
1	0xbcafbd8f	-0.021452693
2	0x3cab7e74	0.020934321
3	0x3d1031a2	0.035203584
4	0x3b40acea	0.002939994
5	0x3d32e76b	0.04367773
6	0xbd30f786	-0.043204807
7	0xbd87d6ec	-0.0663279
8	0x3d25723e	0.040392153
9	0xbd962c92	-0.0733272
10	0xbd4f39bc	-0.05059217
11	0xbdafebad	-0.085898735
12	0x3af01211	0.0018315931
13	0x3d313139	0.043259833
14	0x3d0b84c0	0.034062147
15	0xbd5bcfd0	-0.053664982
16	0x3cd8ae9b	0.026450446
17	0x3d6dd37e	0.058063023
18	0xbd3362da	-0.043795444
19	0xbda000ce	-0.078126535
20	0xbd8f71a2	-0.070040956
21	0x3bde17d0	0.006777741
22	0x3da50be1	0.08058906
23	0xbd8bfcfe	-0.06835364
24	0xbda5fd23	-0.081049226
25	0x3d9b76d5	0.07591025
26	0x3da41859	0.080124564
27	0x3cc3c352	0.023896847
28	0xbd56d1c6	-0.05244615
29	0x3c248be1	0.010043115
30	0xbc341fe7	-0.010993934
31	0xbdac6115	-0.084169544
32	0xbccd60e0	-0.025070608
33	0xbcda87c0	-0.026676059
34	0xbcfd1057	-0.03089158
35	0x3d9ae217	0.075626545
36	0x3c1b706b	0.009487252
37	0x3d449f92	0.04800374
38	0xbd29a7a6	-0.041419648
39	0x3d95d128	0.07315284
40	0xbd3d1d65	-0.04617061
41	0xbd6a34b8	-0.057179183
42	0xbd6ff8fd	-0.058587063
43	0xbcabe5c2	-0.02098358
44	0x3d65b0f0	0.056076944
45	0xbcc327f5	-0.023822764
46	0x3ce097f3	0.027416205
47	0x3d625d63	0.05526484
48	0xbc3e45b5	-0.011613299
49	0x3d3a10b1	0.045426074
50	0x3ccb70d6	0.024834078
51	0xbc9c572f	-0.019084541
52	0xbd1d0717	-0.03833684
53	0x3b8f03ab	0.004364451
54	0x3d6f0a3a	0.058359362
55	0x3ca11f04	0.01966811
56	0xbd06f875	-0.03295179
57	0xbd59f58e	-0.053212695
58	0x3d03f92b	0.032220047
59	0xbce2f10f	-0.027702836
60	0xbc9c189f	-0.019054709
61	0x3cbba298	0.02290468
62	0xbd727f46	-0.05920341
63	0xbd8cf854	-0.06883302
64	0xbd15d94e	-0.03658419
65	0xbd001b8e	-0.03127628
66	0x3c83e97b	0.016102543
67	0xbc304715	-0.010759135
68	0xbd5bd98a	-0.05367426
69	0xbbeee5af	-0.007290564
70	0x3d1e6753	0.038672756
71	0x3cf9c1b6	0.030487876
72	0xbd7947de	-0.060859554
73	0xbc42238b	-0.011849294
74	0xbcb13181	-0.02163005
75	0x3d80299d	0.06257937
76	0x3d52e58a	0.051488437
77	0xbcdeb8ea	-0.027187783
78	0xbc8e386b	-0.017360887
79	0x3d966ca1	0.07344938
80	0x3d7860ae	0.060639076
81	0xbdac0e2c	-0.084011406
82	0x3d06e949	0.03293732
83	0x3d528d2f	0.051404174
84	0xbc77ea54	-0.015131552
85	0xbd5964eb	-0.05307476
86	0xbd9e90bd	-0.077424504
87	0x3cff7466	0.031183433
88	0xbda3a29b	-0.07989999
89	0x3d8b1778	0.06791586
90	0xbd2fa917	-0.042885866
91	0x3c50d9d4	0.012747247
92	0x3d0256d6	0.031821094
93	0xbcfea91f	-0.031086503
94	0x3c070fa6	0.008243477
95	0x3bcf8fb0	0.0063342676
96	0x3d9384a7	0.07203036
97	0x3d667168	0.056260496
98	0xbc4aa208	-0.012367733
99	0x3da24f35	0.07925264
100	0xbc88427f	-0.01663327
101	0x3d660bab	0.05616347
102	0x3da921b1	0.08258379
103	0x3d5f9e84	0.05459453
104	0x3c5a67de	0.013330428
105	0xbc3b80a3	-0.011444244
106	0x3d5d1b2a	0.053980984
107	0x3d515b98	0.05111274
108	0x3d47180a	0.04860691
109	0x3ccc4596	0.024935525
110	0xbd9f93b7	-0.07791846
111	0x3d869e2c	0.06573138
112	0xbd866f43	-0.0656419
113	0xbd87ec3b	-0.06636854
114	0xbd74fb31	-0.059809867
115	0x3d675f6a	0.05648748
116	0x3c97156c	0.018442832
117	0xbd6c5ec7	-0.057707574
118	0xbb9395d0	-0.004503943
119	0x3ca635e4	0.020289369
120	0x3bde891f	0.0067912485
121	0x3d185137	0.037186828
122	0xbdac0191	-0.08398736
123	0xba93814c	-0.0011253743
124	0x3d478ab2	0.048716255
125	0xbcaff4c6	-0.021479022
126	0x3d84ff6d	0.06494031
127	0x3c4110d7	0.0117838
128	0xbd8383e8	-0.064216435
129	0xbcde0097	-0.02709989
130	0xbd379c65	-0.044826884
131	0x3d82c9c8	0.06386143
132	0xbd99b3d8	-0.075050056
133	0xbd225124	-0.039628163
134	0x3ca659d3	0.020306503
135	0x3d844633	0.06458702
136	0xbce8270e	-0.028338935
137	0xbda81dc5	-0.08208803
138	0xbc57275b	-0.013131942
139	0xbd82e826	-0.06391935
140	0x3cf51eb3	0.029921865
141	0xbc7d1542	-0.015446963
142	0x3cc65475	0.024210194
143	0x3cf02bca	0.029317755
144	0x3d090196	0.033448778
145	0x3d613132	0.054978557
146	0xbd1e4792	-0.038642474
147	0x3d660514	0.056157187
148	0x3ce0975c	0.027415924
149	0x3da1bbc5	0.07897142
150	0xbca088ef	-0.019596545
151	0x3d8b6e39	0.06808133
152	0xbd91cf54	-0.07119623
153	0x3c8cd9d6	0.017193716
154	0x3d2cc014	0.042175367
155	0xbc552756	-0.013009867
156	0xbd920900	-0.07130623
157	0xbd7b37c1	-0.061332468
158	0x3d0a0707	0.033698108
159	0x3d895085	0.06704811
160	0x3d05a8e8	0.032631785
161	0xbd8ebb17	-0.06969278
162	0xbd050fca	-0.03248576
163	0xbd8652e3	-0.06558778
164	0x3d5f4863	0.054512393
165	0x3d4bac4a	0.049724855
166	0x3c88b96c	0.016689979
167	0xbd93029e	-0.071782336
168	0x3cab28fd	0.020893568
169	0xbd4ec0de	-0.0504769
170	0xbd45bd7c	-0.04827641
171	0xbd5caa77	-0.053873505
172	0xbd17e2a1	-0.037081365
173	0xbd8c68f2	-0.06855954
174	0x3d974b80	0.07387447
175	0x3d803494	0.062600285
176	0xbc57f075	-0.013179888
177	0xbd47b886	-0.04875996
178	0x3d131f85	0.03591873
179	0xbc83e792	-0.016101632
180	0xbd97467a	-0.07386489
181	0xbd894c62	-0.06704022
182	0xbc8297a0	-0.015941441
183	0xbd14e857	-0.03635439
184	0xb87a8c0c	-5.9735074e-05
185	0x3c1f760a	0.009732733
186	0xbddf21ec	-0.10895142
187	0x3d67bb31	0.056575004
188	0xbc8601b5	-0.016358236
189	0x3dad10e7	0.084504895
190	0xbd9e89ea	-0.07741149
191	0x3d624d3e	0.055249445
192	0xbc66e9e3	-0.014093849
193	0x3d63979d	0.05556451
194	0xbd8cccd7	-0.068750076
195	0xbd37b0ab	-0.044846218
196	0xba856fcf	-0.0010180416
197	0xbc7a3ab1	-0.015272782
198	0xbd38b0b4	-0.045090392
199	0xbdb48cd0	-0.0881592
200	0x3c0dc095	0.008651872
201	0xbd1802f6	-0.0371122
202	0x3daa9da7	0.08330851
203	0xbd439e21	-0.047758225
204	0x3d8c0426	0.06836729
205	0x3cf0a5d6	0.029375952
206	0xbd97b549	-0.07407624
207	0xbc318867	-0.0108357435
208	0x3dba9656	0.091107056
209	0x3d68b1ca	0.056810178
210	0xbd2abfb6	-0.041686736
211	0xbdad15da	-0.084514335
212	0x3d8fec1c	0.07027456
213	0x3d6c2f9a	0.057662584
214	0xbcc28101	-0.023743154
215	0xbdaafa41	-0.083485134
216	0xba9b3ef7	-0.0011844327
217	0x3c939e37	0.018019779
218	0xbd2ec5e1	-0.04266918
219	0xbd8311c2	-0.063998714
220	0xbd8684ed	-0.06568322
221	0x3d7533aa	0.059863724
222	0x3bc56e61	0.006025121
223	0x3cb86e6c	0.02251359
224	0x3d97d8e7	0.07414418
225	0xbda0867b	-0.0783815
226	0x3d886787	0.06660371
227	0xbd29e127	-0.041474488
228	0x3d97823a	0.073978856
229	0x3c702931	0.014658258
230	0x3d41cb06	0.04731276
231	0x3c7b120a	0.015324125
232	0xbd5f6e41	-0.054548506
233	0x3b90d159	0.0044194874
234	0xbce60018	-0.028076217
235	0xbd4b91f7	-0.04969975
236	0xbda7667c	-0.08173844
237	0x3c3e1f60	0.01160416
238	0x3cd266e4	0.025683828
239	0x3d8b7668	0.068096936
240	0xbd7f3be0	-0.06231296
241	0x3d0be0a2	0.034149773
242	0x3d83060b	0.06397637
243	0x3bfb07b2	0.0076608295
244	0x3d4a44cd	0.04938202
245	0x3b5ffd67	0.003417814
246	0x3d85723d	0.0651593
247	0xbd98503f	-0.07437181
248	0x3d4cad1a	0.04996977
249	0xbd07eea6	-0.033186577
250	0xbafdb9f9	-0.0019357792
251	0xbd9b034d	-0.07568989
252	0x3d2bfe68	0.041990668
253	0xbc01aaaf	-0.007914229
254	0xbd27422c	-0.04083459
255	0xbd30ff49	-0.04321221
